mnist_app/MNIST_model.pth (torch, 439973 bytes, 6 tensors)

hidden_0.weight f4 [128, 784]
0.013741903 0.02571642 -0.018961757 -0.019868247 0.016267773 0.008700145 -0.011877035 -0.028519798
0.0004669215 -0.029931283 0.0004917128 0.01884816 0.10286582 0.075529374 -0.038027886 -0.04500812
0.011372903 -0.012806297 -0.0006476939 0.032838877 0.013301169 -0.018966569 -0.003099629 -0.029950654
0.028028997 0.005771633 0.030883059 -0.0026813364 0.013020214 0.0015011133 0.028307103 0.020856999
0.0082666455 0.04079251 0.12104774 0.17682254 0.22047178 0.112555444 0.18408749 0.26208326
0.24497567 0.17588335 0.011645607 0.17952774 0.20226696 0.27062714 0.24551742 0.12256701
0.095528945 0.17829248 0.07768772 0.05920773 0.015142654 -0.030618306 -0.002424121 0.0071443194
-0.0113984095 0.021214686 -0.0073468946 -0.013805018 0.060061015 0.06223017 0.2090311 0.2829042
0.19239247 0.17563483 0.20706 0.27554142 0.3373589 0.24529195 0.23829032 0.26239392
0.3088751 0.24844985 0.057577755 0.07407078 0.051408947 0.01398657 0.1601819 0.15886489
-0.05562135 -0.033294737 0.014123381 -0.012097908 -0.014636534 -0.03507446 -0.025759686 -0.05891189
-0.016028011 0.05917151 0.16314068 0.20513093 0.12083594 0.15146394 0.21359544 0.08392336
0.006204173 0.12123272 0.057972595 0.08628183 0.16774029 0.13403459 0.15137853 0.16725218
0.013925318 -0.0564005 0.052297812 0.17947157 0.091539964 0.020969663 0.024626883 0.02845605
-0.034219377 -0.04849349 0.0072086994 0.013562338 -0.09032109 -0.08805699 -0.11898092 -0.016009506
-0.021412544 0.09532824 0.12647125 0.077638194 -0.0067107123 0.04502295 0.13523942 0.13280745
0.15114337 0.06114523 0.03714217 0.1286267 0.1158635 0.22561726 0.21564329 0.29077834
0.19771822 0.09191532 0.040536817 -0.02338676 -0.027234646 -0.020442277 0.11488098 -0.1558285
-0.17657062 -0.031544268 -0.123456895 -0.055370595 0.08033301 0.058025133 0.14347735 0.10903686
0.11183299 0.07905303 0.112666555 0.08408983 0.13296668 0.19842856 0.279044 0.12354134
0.051549885 0.03455291 0.12701157 0.21151039 0.17759949 0.029582476 -0.044366896 -0.009082655
0.035703916 0.027510725 0.0533822 -0.14799659 -0.18115325 -0.05392589 -0.1342897 0.01677033
0.08097452 -0.05723264 -0.0013714696 0.08216685 0.17547399 0.19985601 0.17388915 0.1303085
0.17649566 0.17289758 0.09791857 0.17050342 0.03889889 -0.12376013 -0.23873809 -0.08289361
0.056610398 -0.023266735 -0.0836411 -0.0051434627 -0.024100726 -0.02504303 0.06268731 -0.16872689
-0.15450343 -0.007898512 -0.012040018 0.026063696 0.07822578 -0.042963684 0.04890501 0.12908362
0.2086859 0.09545216 0.012121549 -0.060009956 0.006379513 -0.13056548 -0.31953582 -0.2541813
-0.27223748 -0.3547268 -0.50181884 -0.4270128 -0.21146798 -0.05562534 -0.09833069 0.017589068
-0.013493581 0.020380858 0.098649964 -0.05520068 -0.083210155 0.096453935 0.11507308 -0.013558022
0.005162178 0.08670026 0.10545666 0.12374135 0.016690461 -0.16715492 -0.2740709 -0.34422174
-0.3586617 -0.4863197 -0.57594657 -0.61982036 -0.58146274 -0.42610273 -0.5070298 -0.5290752
-0.36945602 -0.19676587 -0.035799503 0.0022524963 -0.052926846 -0.03109231 0.06163383 0.14593476
00000000: b825 613c 3eab d23c b055 9bbc bcc2 a2bc
00000010: fe43 853c 0e8b 0e3c e597 42bc 5aa2 e9bc
00000020: 25cd f439 7332 f5bc 4ae6 003a 7567 9a3c
00000030: 51ab d23d 25af 9a3d 21c3 1bbd 6f5a 38bd
00000040: 6a55 3a3c 81d1 51bc 00ca 29ba 0f82 063d
00000050: 25ed 593c c75f 9bbc 2523 4bbb 135b f5bc
00000060: 119d e53c f71f bd3b 78fe fc3c 5cb9 2fbb
00000070: bc52 553c 01c1 c43a 4ce4 e73c 4cdc aa3c
00000080: d370 073c 0c16 273d e1e7 f73d f810 353e
00000090: 5bc3 613e 7883 e63d 6e81 3c3e c72f 863e
000000a0: e7da 7a3e c41a 343e 37cd 3e3c 1fd6 373e
000000b0: 121f 4f3e a48f 8a3e eb68 7b3e 6a04 fb3d
000000c0: aea4 c33d 4e92 363e bd1a 9f3d ce83 723d
000000d0: e518 783c 3ed3 fabc 00de 1ebb e51a ea3b
000000e0: 65c0 3abc 6cca ad3c 38be f0bb 712e 62bc
000000f0: 8a02 763d 10e5 7e3d 400c 563e d2d8 903e
00000100: 8802 453e 9ed9 333e 8907 543e c413 8d3e
00000110: 4eba ac3e d02d 7b3e 6102 743e 7f58 863e
00000120: e124 9e3e a369 7e3e a7d6 6b3d 6cb2 973d
00000130: 3092 523d ed27 653c b906 243e 7aad 223e
00000140: 36d3 63bd 1060 08bd c165 673c 4e36 46bc
00000150: 13ce 6fbc 3daa 0fbd fa05 d3bc 984d 71bd
00000160: 2d4d 83bc d35d 723d 5a0e 273e d80d 523e
00000170: d578 f73d 5d19 1b3e c3b8 5a3e 03e0 ab3d
00000180: 604c cb3b dc48 f83d ac74 6d3d 87b4 b03d
00000190: 1cc4 2b3e 5d40 093e f902 1b3e 2844 2b3e
000001a0: 0427 643c 3604 67bd 3b36 563d 65c7 373e
000001b0: 4e79 bb3d 92c8 ab3c 51be c93c aa1c e93c
000001c0: 9e29 0cbd 1ca1 46bd f436 ec3b 9234 5e3c
000001d0: 43fa b8bd 3957 b4bd 45ac f3bd 5e26 83bc
000001e0: 5c69 afbc 743b c33d ae81 013e c600 9f3d
000001f0: 89e5 dbbb fc69 383d 347c 0a3e adfe 073e
00000200: 54c5 1a3e 6c73 7a3d 6322 183d b8b6 033e
00000210: d849 ed3d 3608 673e 98d1 5c3e e6e0 943e
00000220: a576 4a3e 193e bc3d ef09 263d 9795 bfbc
00000230: 311b dfbc 9076 a7bc b846 eb3d 8291 1fbe
00000240: eece 34be 9034 01bd f8d6 fcbd 47cc 62bd
00000250: a285 a43d c3ab 6d3d baeb 123e b84e df3d
00000260: b208 e53d 8ee6 a13d b9bd e63d 4a37 ac3d
00000270: 6b28 083e db30 4b3e dbde 8e3e 3e03 fd3d
00000280: f925 533d 5a87 0d3d 520f 023e 2e96 583e
00000290: a4dc 353e f356 f23c 10ba 35bd 6bcf 14bc
000002a0: 453e 123d 2c5e e13c 4ba7 5a3d 6b8c 17be
000002b0: 3d80 39be 65e1 5cbd 3d83 09be ee61 893c
000002c0: f8d5 a53d c66c 6abd e2c2 b3ba 1847 a83d
000002d0: 74af 333e 0ea7 4c3e ff0f 323e 976f 053e
000002e0: 47bb 343e 100c 313e 8889 c83d 7398 2e3e
000002f0: 7154 1f3d f375 fdbd c277 74be 20c4 a9bd
00000300: 4ee0 673d e199 bebc 064c abbd 7e8a a8bb
00000310: e36e c5bc 0a27 cdbc 3462 803d bec6 2cbe
00000320: 2636 1ebe c368 01bc 7f43 45bc 8883 d53c
00000330: d634 a03d b0fa 2fbd 9f50 483d 7f2e 043e
00000340: c2b1 553e 6c7c c33d 7699 463c 00cd 75bd
00000350: 3c0b d13b f5b2 05be 339a a3be 0d24 82be
00000360: b662 8bbe c09e b5be 3377 00bf 6ca1 dabe
00000370: 108b 58be 66d7 63bd 9a61 c9bd f316 903c
00000380: 2e14 5dbc c2f5 a63c fe08 ca3d 1c1a 62bd
00000390: 166a aabd a489 c53d 6fab eb3d 7722 5ebc
000003a0: 7d27 a93b e88f b13d a9f9 d73d 1b6c fd3d
000003b0: 6fba 883c a92a 2bbe 0553 8cbe d53d b0be
000003c0: 82a2 b7be e5fe f8be 3c71 13bf 8cac 1ebf
000003d0: beda 14bf 232a dabe b4cc 01bf 7971 07bf
000003e0: 5729 bdbe fe7c 49be 80a2 12bd 9e9e 133b
000003f0: d2c9 58bd 4db5 febc c173 7c3d ec6f 153e

hidden_0.bias f4 [128]
0.13878298 -0.10258228 -0.06458382 0.13610871 0.012365321 -0.17298125 -0.04682174 -0.017213196
0.21649624 -0.061460342 -0.08989081 -0.006667689 0.02586548 0.12769549 -0.217492 0.07821667
0.14251624 -0.22353984 0.03445678 0.050235145 -0.07971355 -0.10116878 -0.029621476 0.16423103
-0.053883675 -0.13134395 0.05467345 0.030184984 0.0060265115 -0.15154746 0.028764393 0.029302513
0.03585565 -0.12197287 0.19077167 0.12886208 0.028109778 0.14154804 -0.016740797 0.026570389
-0.13516496 0.1815139 0.0072145625 -0.17824228 0.16419934 0.052777257 -0.28552866 0.15133703
0.12502575 -0.08761016 0.016691247 -0.0009477795 -0.016204115 -0.082478985 0.037530348 0.14547855
-0.15039563 -0.099596106 0.10290002 0.017406324 -0.14199153 0.123181805 0.043528296 -0.08785777
-0.0142345065 -0.027903121 -0.12450303 0.039836127 -0.113239795 -0.07911711 -0.24755974 -0.100262746
-0.060676035 -0.01819424 0.089142375 0.006014936 -0.034219354 0.02036431 -0.06262254 0.009795928
0.1319737 0.08332854 -0.08465102 -0.05607884 -0.24554545 0.09611931 -0.021740759 -0.06867706
-0.04304269 0.05557093 -0.2008408 0.046970144 -0.13944107 -0.15402077 0.047337737 0.08900495
0.0893514 -0.18637207 -0.014923353 0.08111769 -0.0062766867 0.067679144 0.17061824 -0.12752171
-0.017446289 -0.040479917 -0.028391251 0.28388944 -0.04101517 -0.046562903 0.2021138 -0.09159306
-0.15202934 -0.048300993 0.1295769 0.14980413 -0.02674919 -0.0018600492 -0.062317 0.2682979
0.038758945 0.04948192 0.20303546 0.15348968 0.0037574512 -0.028055135 0.114975795 0.17130406
00000000: 201d 0e3e a916 d2bd 8644 84bd 1560 0b3e
00000010: ea97 4a3c ff21 31be 27c8 3fbd b002 8dbc
00000020: 31b1 5d3e d7bd 7bbd ac18 b8bd a17c dabb
00000030: d8e3 d33c 9bc2 023e 39b6 5ebe 1030 a03d
00000040: c7ef 113e a1e7 64be 8d22 0d3d 5ec3 4d3d
00000050: dc40 a3bd 9431 cfbd bda8 f2bc 2e2c 283e
00000060: 21b5 5cbd 077f 06be 44f1 5f3d 8046 f73c
00000070: 0b7a c53b 422f 1bbe 4ea3 eb3c d30b f03c
00000080: 60dd 123d e9cc f9bd a659 433e 6cf4 033e
00000090: 7a46 e63c f8f1 103e ff23 89bc 25aa d93c
000000a0: af68 0abe c8de 393e 2368 ec3b 2585 36be
000000b0: df23 283e f72c 583d d030 92be 18f8 1a3e
000000c0: c006 003e f56c b3bd 15bc 883c 6874 78ba
000000d0: 7ebe 84bc beea a8bd 6cb9 193d 54f8 143e
000000e0: 5001 1abe 0bf9 cbbd 3fbd d23d b597 8e3c
000000f0: 3a66 11be be46 fc3d ba4a 323d c6ee b3bd
00000100: d937 69bc 1695 e4bc 72fb febd 352b 233d
00000110: 44ea e7bd 2708 a2bd 4d80 7dbe 8e56 cdbd
00000120: 6f87 78bd 160c 95bc 4790 b63d f118 c53b
00000130: 9829 0cbd 0ed3 a63c 3f40 80bd 1a7f 203c
00000140: 1d24 073e 27a8 aa3d 845d adbd edb2 65bd
00000150: 4470 7bbe 33da c43d ad19 b2bc 8fa6 8cbd
00000160: 884d 30bd 589e 633d 36a9 4dbe c463 403d
00000170: a4c9 0ebe 9fb7 1dbe 37e5 413d 3a48 b63d
00000180: defd b63d 52d8 3ebe 1481 74bc 0821 a63d
00000190: aaac cdbb 5d9b 8a3d 8cb6 2e3e 0d95 02be
000001a0: 85eb 8ebc 45ce 25bd c594 e8bc f559 913e
000001b0: 86ff 27bd beb8 3ebd ecf6 4e3e 2495 bbbd
000001c0: 94ad 1bbe 43d7 45bd cfaf 043e 4166 193e
000001d0: 1e21 dbbc e5cc f3ba 1c40 7fbd 585e 893e
000001e0: b3c1 1e3d 8ead 4a3d 87e8 4f3e 662c 1d3e
000001f0: 923f 763b e2d3 e5bc 6e78 eb3d 556a 2f3e

hidden_1.weight f4 [64, 128]
-0.32458264 0.15802735 0.092563264 0.114902206 0.052407622 -0.030330496 0.00016892907 0.0424871
0.030681202 0.048847284 0.36543182 0.10444662 0.0626103 -0.042770214 0.09899124 0.015103509
0.11859312 0.23308423 -0.077833116 -0.35365075 0.0515192 -0.070432976 -0.09472205 0.14208081
0.0025095935 0.116509095 -0.08308855 0.009887075 -0.09087022 0.106709614 0.10731506 -0.2103889
-0.1709 0.054904576 -0.24007523 -0.22285058 0.1100674 0.009499076 0.05949719 -0.026353259
0.10561546 -0.24060029 -0.05103244 0.05296388 -0.08275186 -0.23339556 0.03093775 0.049894482
-0.03315284 0.17268711 0.13031757 -0.22084677 -0.044446904 0.068519786 -0.31863248 -0.09506188
0.091637574 -0.014084968 -0.03044793 -0.03998911 -0.040826123 -0.00970457 -0.08193627 0.1405425
-0.041087102 0.0077296346 -0.15148956 -0.012477857 -0.09592244 -0.18904918 0.1547728 0.008846795
0.16167152 -0.17980818 0.17050286 0.03847447 0.16659817 -0.02590266 0.022613881 -0.29426548
-0.033509932 0.098408654 0.09535758 0.0035732752 0.007771534 0.044019006 0.17940912 0.04584956
0.09461177 -0.18427889 0.12332456 -0.13945389 -0.00667695 -0.020301802 0.017584603 -0.088719785
-0.04982292 0.03578427 -0.023572797 -0.008240614 0.05404507 -0.25005153 -0.028067958 0.03588011
0.14664595 0.27612275 -0.046521682 -0.40696314 -0.07144978 0.2571799 -0.09136444 0.3643586
-0.16062984 0.01898091 -0.08662913 -0.25267842 -0.02908712 -0.41498724 0.07611166 -0.21842581
0.12241918 0.12243358 -0.3275157 -0.15918903 -0.09260219 0.118402265 0.017068816 -0.3227496
-0.32675558 -0.15427722 -0.041023422 -0.28746197 0.048286043 0.004231944 0.1349572 -0.25813878
-0.1444326 -0.063943185 0.009030554 -0.027893996 -0.02709804 -0.20588481 0.1265668 -0.20942849
-0.43837523 0.15092647 -0.005414858 -0.35278472 -0.14821486 0.13702714 -0.01786055 -0.31205505
0.23342271 0.04442581 0.10917183 -0.22729112 -0.123402745 -0.04820022 -0.15593736 -0.18932565
0.061038062 0.1434198 -0.6001676 -0.34767562 -0.11448603 -0.23984253 0.057992492 0.05428087
-0.04113048 -0.31396842 -0.014599321 0.22392127 -0.31852075 -0.22238237 0.08288101 -0.16967061
-0.07543474 0.07965266 0.14103241 -0.09113324 0.07944966 0.035083637 -0.34095138 0.00694747
-0.20583935 0.15759034 -0.19501373 -0.051032964 0.18050286 -0.025012095 0.0845821 0.09582021
-0.3149918 -0.039289497 -0.163064 -0.07301138 -0.033432268 0.050602484 0.07847975 0.038691193
0.05694215 0.004063547 0.045930844 -0.07331873 0.08061417 -0.07554544 0.023760948 -0.21056502
-0.11039539 -0.08739123 0.0055732224 0.07783766 0.15270959 0.13653107 0.101357944 -0.02510794
0.13813917 0.11113153 0.025635263 0.16714956 0.06884564 0.17421047 0.014869586 -0.12198131
-0.06285756 0.0040238714 0.13143994 -0.021655783 0.2314695 -0.085850574 -0.114015765 -0.03394827
-0.03729672 0.12275545 -0.038311742 -0.43022698 0.04901991 -0.1186188 -0.19487393 0.14578345
0.12524246 0.08461074 -0.3142068 -0.21553019 -0.046475757 -0.36315575 0.068424076 -0.064861774
-0.19944765 0.069539994 -0.13522248 -0.010269446 -0.058743823 -0.0012374792 0.036296565 -0.5868978
00000000: b22f a6be ecd1 213e cf91 bd3d d951 eb3d
00000010: 60a9 563d a977 f8bc 8d22 3139 f406 2e3d
00000020: 2557 fb3c 1714 483d e119 bb3e 1ce8 d53d
00000030: d439 803d d22f 2fbd ebbb ca3d b574 773c
00000040: f3e0 f23d a2ad 6e3e f866 9fbd b611 b5be
00000050: cc05 533d 2a3f 90bd a2fd c1bd a27d 113e
00000060: fe77 243b 529c ee3d 542a aabd 66fd 213c
00000070: 2a1a babd 928a da3d 00c8 db3d 3070 57be
00000080: 6900 2fbe 9fe3 603d 48d6 75be f132 64be
00000090: 046b e13d 03a2 1b3c 53b3 733d cae2 d7bc
000000a0: eb4c d83d ec5f 76be 6407 51bd a7f0 583d
000000b0: cf79 a9bd 3fff 6ebe 2a71 fd3c 285e 4c3d
000000c0: 46cb 07bd e4d4 303e f871 053e a825 62be
000000d0: f50d 36bd 1a54 8c3d cc23 a3be ceaf c2bd
000000e0: 7bac bb3d a3c4 66bc f06d f9bc 9fcb 23bd
000000f0: 4b39 27bd ebff 1ebc 34ce a7bd 60ea 0f3e
00000100: f34a 28bd e048 fd3b 1420 1bbe ed6f 4cbc
00000110: fc72 c4bd 1c96 41be c37c 1e3e 26f2 103c
00000120: 388d 253e a31f 38be 4d98 2e3e 6897 1d3d
00000130: b698 2a3e d131 d4bc bf40 b93c f7a9 96be
00000140: b641 09bd 7a8a c93d d64a c33d 9c2d 6a3b
00000150: 5aa8 fe3b 464d 343d 06b7 373e c0cc 3b3d
00000160: d1c3 c13d 9bb3 3cbe 9691 fc3d 00cd 0ebe
00000170: 51ca dabb f74f a6bc 960d 903c b8b2 b5bd
00000180: 1e13 4cbd 8792 123d bd1b c1bc a403 07bc
00000190: 5d5e 5d3d c106 80be c6ee e5bc 06f7 123d
000001a0: 5b2a 163e f65f 8d3e 858d 3ebd 795d d0be
000001b0: 4354 92bd 15ad 833e 481d bbbd 368d ba3e
000001c0: 267c 24be da7d 9b3c 9d6a b1bd 115f 81be
000001d0: 1d48 eebc 3579 d4be 6ee0 9b3d 04ab 5fbe
000001e0: e8b6 fa3d 75be fa3d 23b0 a7be 7302 23be
000001f0: 38a6 bdbd e37c f23d e7d3 8b3c 703f a5be
00000200: 824c a7be d9fa 1dbe 2d08 28bd 372e 93be
00000210: 96c7 453d 1fac 8a3b 3832 0a3e c42a 84be
00000220: 24e6 13be a5f4 82bd e4f4 133c f381 e4bc
00000230: b5fc ddbc 78d3 52be ba9a 013e 6c74 56be
00000240: b872 e0be 788c 1a3e 1f6f b1bb 33a0 b4be
00000250: a3c5 17be d850 0c3e 4a50 92bc aec5 9fbe
00000260: 5d06 6f3e d7f7 353d 7b95 df3d 01bf 68be
00000270: 94ba fcbd 986d 45bd 0bae 1fbe 95de 41be
00000280: 0c03 7a3d a4dc 123e 95a4 19bf 8a02 b2be
00000290: a777 eabd 4899 75be 8989 6d3d 9e55 5e3d
000002a0: 6f78 28bd 78c0 a0be fe31 6fbc 9e4b 653e
000002b0: 2715 a3be 34b8 63be 85bd a93d 22be 2dbe
000002c0: 877d 9abd ef20 a33d cd6a 103e 10a4 babd
000002d0: 81b6 a23d dcb3 0f3d 2e91 aebe 9aa7 e33b
000002e0: 8dc7 52be 5d5f 213e aeb1 47be f107 51bd
000002f0: bed5 383e 2ae6 ccbc 6139 ad3d 633d c43d
00000300: 9b46 a1be 06ee 20bd 40fa 26be fe86 95bd
00000310: 46f0 08bd 8d44 4f3d feb9 a03d a87a 1e3d
00000320: 2c3c 693d 8127 853b fb21 3c3d 2128 96bd
00000330: 0b19 a53d 91b7 9abd 52a6 c23c 5b9e 57be
00000340: fa16 e2bd 2cfa b2bd 949f b63b 5a69 9f3d
00000350: e75f 1c3e cdce 0b3e c194 cf3d 2baf cdbc
00000360: 5b74 0d3e ed98 e33d 0b01 d23c 4129 2b3e
00000370: f1fe 8c3d 3b64 323e 909f 733c 56d1 f9bd
00000380: 77bb 80bd aeda 833b 3198 063e 7867 b1bc
00000390: 5706 6d3e 6dd2 afbd 1981 e9bd 570d 0bbd
000003a0: 72c4 18bd 3667 fb3d c6ec 1cbd b646 dcbe
000003b0: 1ac9 483d 6aee f2bd 088d 47be 4248 153e
000003c0: 8f3f 003e 6548 ad3d b7df a0be f2b3 5cbe
000003d0: 5d5d 3ebd 8def b9be ec21 8c3d 40d6 84bd
000003e0: 013c 4cbe fc6a 8e3d c377 0abe 2e41 28bc
000003f0: 5d9d 70bd e932 a2ba b5ab 143d ef3e 16bf

hidden_1.bias f4 [64]
0.09702629 0.13990468 0.01848651 -0.04839649 -0.1550238 0.030685391 0.22776362 0.08093544
-0.059154272 0.08330198 -0.000560008 0.104659 0.25160697 0.009196266 0.15445313 0.12887141
0.061648067 -0.04359867 0.058709055 0.14868924 0.12142723 0.034873113 -0.0748684 -0.04119492
-0.039106164 0.031606264 -0.006707147 0.22775409 0.06457466 0.2114935 0.086400114 0.1508844
0.17087613 0.010368447 0.2868114 0.19053617 -0.0007354548 0.092491105 0.18511789 0.14352265
-0.014350313 0.0058554015 0.15068609 0.12316726 0.2262453 -0.0029158795 0.18613166 -0.0032330805
0.12592994 0.16993026 0.15182145 0.22558112 0.0815513 0.03876712 0.2403502 0.016109833
0.20406777 0.112771206 0.061224636 0.23906502 -0.006827773 -0.21246938 -0.09385317 -0.087086506
00000000: b8b5 c63d 2c43 0f3e 0571 973c 663b 46bd
00000010: 8fbe 1ebe ee5f fb3c de3a 693e 7bc1 a53d
00000020: c04b 72bd 3a9a aa3d 80cd 12ba 7557 d63d
00000030: a1d2 803e efab 163c f628 1e3e def6 033e
00000040: af82 7c3d 8594 32bd e878 703d fe41 183e
00000050: d7ae f83d 1cd7 0e3d 9b54 99bd 01bc 28bd
00000060: c92d 20bd 9275 013d a1c7 dbbb 5e38 693e
00000070: b83f 843d c191 583e 8bf2 b03d 7181 1a3e
00000080: 27fa 2e3e 6be0 293c f2d8 923e ea1b 433e
00000090: 89cb 40ba fa6b bd3d 8b8f 3d3e 9af7 123e
000000a0: 931d 6bbc abde bf3b 744d 1a3e 1e3f fc3d
000000b0: d9ac 673e 5718 3fbb 4c99 3e3e 17e2 53bb
000000c0: c7f3 003e 3302 2e3e 1577 1b3e bdfe 663e
000000d0: 5e04 a73d 46ca 1e3d 5d1e 763e c5f8 833c
000000e0: 24f7 503e 97f4 e63d afc6 7a3d 76cd 743e
000000f0: 83bb dfbb 9391 59be 1736 c0bd 695a b2bd

output.weight f4 [10, 64]
-0.21268567 -0.24864472 0.19137663 0.037350584 -0.24555002 -0.42425317 0.30978402 -0.29450065
-0.15804793 0.23813619 -0.31151724 -0.5557935 -0.35847074 -0.09521021 0.087866485 0.109224185
-0.41466728 0.031402 -0.19513953 0.22286062 -0.10110439 0.13732563 -0.24835618 -0.2578477
-0.43893766 0.22988896 0.08617738 0.33357292 0.23103935 -0.3674875 -0.18737935 -0.2468673
-0.16126841 -0.44665408 -0.0088956505 0.20517449 -0.19065565 -0.49915195 0.15939903 -0.02982831
-0.32593334 0.1476697 0.12648194 0.15923347 -0.2913006 -0.41865638 -0.1353743 -0.23042968
-0.17258172 0.13949664 -0.2351475 0.10538897 -0.050492954 -0.574172 0.27563828 -0.45863008
-0.34790197 0.059820283 -0.16506831 -0.09807679 0.13770886 -0.38423204 -0.17519923 0.1055071
0.17772862 -0.3843418 -0.44805884 -0.26897332 -0.1806343 0.02475432 -0.04045656 0.21283147
-0.32791466 -0.5327863 0.06315451 0.08820893 0.10639828 -0.17444102 -0.25666037 -0.48341015
-0.45956963 0.06472761 0.04588296 -0.467474 0.15668906 -0.16203809 0.05105819 -0.16171958
0.1474346 0.17099798 0.1378693 0.19267036 -0.171033 0.13465941 0.1266822 -0.47818002
0.08020884 0.20599288 0.19623378 -0.4758601 0.22003067 0.17424735 -0.26407626 0.012966134
0.05672775 -0.3765902 -0.4033816 -0.13119239 -0.25150156 0.020412698 -0.49023452 -0.543673
0.08430563 -0.52886575 -0.22772081 -0.44328064 -0.23189451 0.10532548 -0.12709032 0.2085791
0.09317047 -0.4674949 -0.2744059 0.19285066 -0.38182637 0.12953532 -0.28378016 -0.2072002
0.11937064 0.049304944 0.09071164 -0.14425573 -0.011761429 0.1652414 -0.012546335 -0.16583923
-0.12594706 -0.1970212 0.16893809 -0.4402099 -0.3427429 -0.48495546 0.023751305 0.1045207
-0.42712048 0.045723923 -0.11909778 0.15188748 -0.35172573 0.0886945 0.21521257 -0.00039856232
-0.34515196 0.1592027 0.021940043 -0.23389694 0.10775697 -0.3894043 0.17407207 0.13008155
-0.13340645 0.11925987 -0.17640884 -0.053934075 0.18742122 0.18219411 -0.064246 -0.3189645
-0.13472567 -0.04179715 -0.028827168 0.062940665 -0.3778151 -0.37384 -0.022012725 0.027139645
0.15791453 0.09847912 0.0914756 -0.089370914 0.030219112 0.0769121 -0.3178071 0.15025216
-0.443093 0.049245145 -0.3334844 0.16087973 0.08677524 0.12576754 0.13168602 0.035473753
0.15039633 0.2255765 0.17243499 0.0474441 0.10269783 0.11624454 -0.30750933 0.14144272
-0.32134986 -0.13862577 -0.11878379 0.08309542 -0.379434 -0.15931836 0.07220984 0.029015305
0.13004583 0.05989316 0.08104426 -0.16200915 -0.6065541 0.115481764 0.19372354 0.07991778
0.113650754 -0.27254635 -0.29339436 -0.31821358 -0.41589674 -0.23574886 0.19687288 0.09988658
-0.10636194 0.14352576 -0.3057846 -0.24622111 -0.2083291 -0.37736905 0.12523009 0.085789345
0.07602093 -0.25033227 -0.34340343 0.08717003 -0.08678349 0.1677251 -0.30177224 -0.14321852
0.14333916 -0.2705062 -0.0066800853 -0.30515018 -0.15719323 0.08634576 -0.03383208 -0.3394237
-0.13363197 -0.029583568 0.08357484 -0.41582772 0.110112116 0.083387636 0.096604675 0.08682135
00000000: 46ca 59be b99c 7ebe 3cf8 433e edfc 183d
00000010: 7771 7bbe b637 d9be 039c 9e3e cac8 96be
00000020: 51d7 21be f9d9 733e 307f 9fbe 7c48 0ebf
00000030: 7a89 b7be 92fd c2bd 58f3 b33d eeb0 df3d
00000040: 454f d4be 629f 003d a8d2 47be 9335 643e
00000050: d20f cfbd 179f 0c3e 1551 7ebe 9d04 84be
00000060: 70bc e0be 0368 6b3e c47d b03d 12ca aa3e
00000070: 9495 6c3e 5227 bcbe 5fe0 3fbe c8ca 7cbe
00000080: 8c23 25be d8af e4be 10bf 11bc 4319 523e
00000090: 3c3b 43be d890 ffbe 8039 233e 805a f4bc
000000a0: bce0 a6be ba36 173e 7b84 013e 190e 233e
000000b0: 5a25 95be 215a d6be 8f9f 0abe c2f5 6bbe
000000c0: 43b9 30be 35d8 0e3e 82ca 70be 2cd6 d73d
000000d0: b3d1 4ebd f0fc 12bf 7620 8d3e 90d1 eabe
000000e0: 3520 b2be 1d06 753d ab07 29be 7cdc c8bd
000000f0: 8d03 0d3e 10ba c4be 6d67 33be 1b14 d83d
00000100: 7efe 353e 73c8 c4be f867 e5be dfb6 89be
00000110: 33f8 38be 92c9 ca3c c7b5 25bd 7ef0 593e
00000120: 6ee4 a7be af64 08bf 2757 813d e2a6 b43d
00000130: 57e7 d93d aba0 32be fd68 83be 8981 f7be
00000140: b64c ebbe e98f 843d c5ef 3b3d c158 efbe
00000150: 1973 203e 50ed 25be 6522 513d d199 25be
00000160: 19f9 163e 181a 2f3e 9c2d 0d3e 614b 453e
00000170: 4623 2fbe 28e4 093e fbb8 013e 03d4 f4be
00000180: 8844 a43d ccef 523e 82f1 483e efa3 f3be
00000190: b84f 613e e66d 323e 0135 87be e86f 543c
000001a0: 5b5b 683d 6ed0 c0be 0888 cebe 4c57 06be
000001b0: d0c4 80be 8838 a73c 0500 fbbe 272e 0bbf
000001c0: 6ea8 ac3d bf63 07bf a52f 69be aef5 e2be
000001d0: c175 6dbe e3b4 d73d f723 02be c295 553e
000001e0: 29d0 be3d 7e5b efbe ee7e 8cbe a57a 453e
000001f0: bf7e c3be e8a4 043e a24b 91be 4a2c 54be
00000200: 9878 f43d fbf3 493d 06c7 b93d c6b7 13be
00000210: 02b3 40bc 0b35 293e 258f 4dbc c2d1 29be
00000220: 44f8 00be edbf 49be 1bfe 2c3e 3163 e1be
00000230: ff7b afbe 154c f8be 1992 c23c f30e d63d
00000240: 89af dabe 0249 3b3d 89e9 f3bd 6488 1b3e
00000250: 6515 b4be 76a5 b53d af60 5c3e 21f6 d0b9
00000260: c2b7 b0be 0806 233e 9bbb b33c ae82 6fbe
00000270: b0af dc3d 0060 c7be f33f 323e 1934 053e
00000280: b39b 08be 853e f43d 85a4 34be fae9 5cbd
00000290: 59eb 3f3e 1891 3a3e 6893 83bd 514f a3be
000002a0: 87f5 09be 7d33 2bbd f426 ecbc 09e7 803d
000002b0: fb70 c1be f567 bfbe 0854 b4bc f653 de3c
000002c0: 59b4 213e 6caf c93d 8f57 bb3d 1908 b7bd
000002d0: 128e f73c 1784 9d3d 9db7 a2be b4db 193e
000002e0: 16dd e2be 47b5 493d 78be aabe a8bd 243e
000002f0: 38b7 b13d 35c9 003e b3d8 063e ed4c 113d
00000300: 7f01 1a3e 87fd 663e cc92 303e bf54 423d
00000310: 3d53 d23d 9e11 ee3d dd71 9dbe 5cd6 103e
00000320: f887 a4be eaf3 0dbe ea44 f3bd ee2d aa3d
00000330: 2c45 c2be 5a24 23be c1e2 933d 81b1 ed3c
00000340: bc2a 053e 8852 753d 88fa a53d bae5 25be
00000350: 2147 1bbf b481 ec3d 775f 463e efab a33d
00000360: bac1 e83d 328b 8bbe c937 96be e4ec a2be
00000370: 6bf0 d4be 2668 71be 0b99 493e 5691 cc3d
00000380: 4ad4 d9bd 6bf8 123e cd8f 9cbe 6321 7cbe
00000390: 3954 55be 8436 c1be 513c 003e 53b2 af3d
000003a0: ddb0 9b3d 8d2b 80be 93d2 afbe 3386 b23d
000003b0: 8bbb b1bd 21c0 2b3e e481 9abe e0a7 12be
000003c0: 80c7 123e ca7f 8abe 9ee4 dabb a53c 9cbe
000003d0: 43f7 20be 0cd6 b03d 8293 0abd f1c8 adbe
000003e0: d2d6 08be 3d59 f2bc 4929 ab3d 5fe7 d4be
000003f0: 7682 e13d 23c7 aa3d acd8 c53d 64cf b13d

output.bias f4 [10]
0.20809922 0.020493668 -0.17505525 -0.26861933 0.09416366 -0.036151763 -0.0038464912 0.026616633
0.22178629 -0.036846176
00000000: f617 553e 56e2 a73c af41 33be 7988 89be
00000010: e1d8 c03d df13 14bd 6a15 7cbb 200b da3c
00000020: f21b 633e 04ec 16bd
